2024-10-02 16:53:58,658 - ### Model summary below###
 CDCK2ForSingapore(
  (encoder): Sequential(
    (0): Conv1d(5, 128, kernel_size=(10,), stride=(2,), padding=(4,), bias=False)
    (1): BatchNorm1d(128, eps=1e-05, momentum=0.1, affine=True, track_running_stats=True)
    (2): ReLU(inplace=True)
    (3): Conv1d(128, 128, kernel_size=(8,), stride=(2,), padding=(3,), bias=False)
    (4): BatchNorm1d(128, eps=1e-05, momentum=0.1, affine=True, track_running_stats=True)
    (5): ReLU(inplace=True)
    (6): Conv1d(128, 128, kernel_size=(4,), stride=(2,), padding=(1,), bias=False)
    (7): BatchNorm1d(128, eps=1e-05, momentum=0.1, affine=True, track_running_stats=True)
    (8): ReLU(inplace=True)
    (9): Conv1d(128, 128, kernel_size=(4,), stride=(2,), padding=(1,), bias=False)
    (10): BatchNorm1d(128, eps=1e-05, momentum=0.1, affine=True, track_running_stats=True)
    (11): ReLU(inplace=True)
    (12): Conv1d(128, 128, kernel_size=(4,), stride=(2,), padding=(1,), bias=False)
    (13): BatchNorm1d(128, eps=1e-05, momentum=0.1, affine=True, track_running_stats=True)
    (14): ReLU(inplace=True)
  )
  (gru): GRU(128, 128, batch_first=True)
  (Wk): ModuleList(
    (0): Linear(in_features=128, out_features=128, bias=True)
    (1): Linear(in_features=128, out_features=128, bias=True)
    (2): Linear(in_features=128, out_features=128, bias=True)
    (3): Linear(in_features=128, out_features=128, bias=True)
    (4): Linear(in_features=128, out_features=128, bias=True)
    (5): Linear(in_features=128, out_features=128, bias=True)
    (6): Linear(in_features=128, out_features=128, bias=True)
    (7): Linear(in_features=128, out_features=128, bias=True)
    (8): Linear(in_features=128, out_features=128, bias=True)
    (9): Linear(in_features=128, out_features=128, bias=True)
    (10): Linear(in_features=128, out_features=128, bias=True)
    (11): Linear(in_features=128, out_features=128, bias=True)
  )
  (softmax): Softmax(dim=None)
  (lsoftmax): LogSoftmax(dim=None)
)

2024-10-02 16:53:58,658 - ===> Model total parameter: 632576

2024-10-02 16:53:58,658 - ### Training with the following hyperparameters:
raw: dataset/grab_possi/grab_possi_Jakarta_all/allJakarta.hdf5
train: dataGenerate/allJakartaGenerate/allJakartaTrain.txt
validation: dataGenerate/allJakartaGenerate/allJakartaVal.txt
…
